…
                 all         17         17          1          1      0.997      0.909
                 all         17         17          1          1      0.997      0.921
                 all         17         17          1          1      0.997      0.916
                 all         17         17          1          1      0.997      0.909
Optimizer stripped from runs/train/exp3/weights/polygon_last.pt, 14.4MB
Optimizer stripped from runs/train/exp3/weights/polygon_best.pt, 14.4MB
                 from  n    params  module                                  arguments
  0                -1  1      3520  models.common.Focus                     [3, 32, 3]
  1                -1  1     18560  models.common.Conv                      [32, 64, 3, 2]
  2                -1  1     18816  models.common.C3                        [64, 64, 1]
  3                -1  1     73984  models.common.Conv                      [64, 128, 3, 2]
  4                -1  1    156928  models.common.C3                        [128, 128, 3]
  5                -1  1    295424  models.common.Conv                      [128, 256, 3, 2]
  6                -1  1    625152  models.common.C3                        [256, 256, 3]
  7                -1  1   1180672  models.common.Conv                      [256, 512, 3, 2]
  8                -1  1    656896  models.common.SPP                       [512, 512, [5, 9, 13]]
  9                -1  1   1182720  models.common.C3                        [512, 512, 1, False]
 10                -1  1    131584  models.common.Conv                      [512, 256, 1, 1]
 11                -1  1         0  torch.nn.modules.upsampling.Upsample    [None, 2, 'nearest']
 12           [-1, 6]  1         0  models.common.Concat                    [1]
 13                -1  1    361984  models.common.C3                        [512, 256, 1, False]
 14                -1  1     33024  models.common.Conv                      [256, 128, 1, 1]
 15                -1  1         0  torch.nn.modules.upsampling.Upsample    [None, 2, 'nearest']
 16           [-1, 4]  1         0  models.common.Concat                    [1]
 17                -1  1     90880  models.common.C3                        [256, 128, 1, False]
 18                -1  1    147712  models.common.Conv                      [128, 128, 3, 2]
 19          [-1, 14]  1         0  models.common.Concat                    [1]
 20                -1  1    296448  models.common.C3                        [256, 256, 1, False]
 21                -1  1    590336  models.common.Conv                      [256, 256, 3, 2]
 22          [-1, 10]  1         0  models.common.Concat                    [1]
 23                -1  1   1182720  models.common.C3                        [512, 512, 1, False]
 24      [17, 20, 23]  1     26970  models.yolo.Polygon_Detect              [1, [[28, 11, 42, 16, 46, 19], [69, 31, 85, 42, 96, 40], [102, 81, 169, 72, 181, 80]], [128, 256, 512]]
Model Summary: 283 layers, 7074330 parameters, 7074330 gradients, 16.4 GFLOPs
Transferred 360/362 items from polygon_best.pt
Scaled weight_decay = 0.000625
Optimizer groups: 62 .bias, 62 conv.weight, 59 other
…
